libs/rl-car/model.onnx (onnx, 74119 bytes, 8 tensors)

actor.latent_pi.0.weight f4 [128, 5]
00000000: 6017 ac3e 9959 bb3e 8571 debd e9d9 b43e
00000010: cad9 c0bd e461 8e3d df8b 58be 41ee 8b3e
00000020: d3e3 bd3e fe6a a6be ca81 ba3e 369c ab3d
00000030: 671b a33e aefe 7d3d e71a 503e 498b 51bd
00000040: 8cb4 a33e 0bee 813d 9d06 55be 91ec c73d
00000050: 4154 3fbe bedb 6dbd 7a22 3dbe d52a 923e
00000060: 37ca aabe 4ccc 49be b626 f6bd 49ad 91be
00000070: ce5e 9c3d 7ea5 cfbe fd64 cc3e 6395 bdbe
00000080: 3f7b a53e b43c a83d 3d53 f8bd c1cc 823e
00000090: 69f5 6b3d a621 b73e 6420 833d 17ea 07be
000000a0: 29e3 e93d f5e3 dcbd e6bb 223e f59f cc3e
000000b0: f68c 913e e35c 4cbe f83f 7c3e c2ec a13d
000000c0: ccde 3e3e 7bac 7dbe 46b5 d8be 45c5 28be
000000d0: 398c b0be bf2d a83e 2f83 173e 3a68 363e
000000e0: 0e1d fc3d 4cd5 c2bc c828 a43e 9cf5 97be
000000f0: cfa4 983c 7cf8 91be 8487 123e 1790 1abe
00000100: 5120 013e 906c c1bd c9c4 be3e 4f4e 7ebe
00000110: 29b9 82be 010f 83be d8e9 bf3e 1fbe 103e
00000120: e47b b93e 0ccb bbbe 741d bcbe 5580 a9be
00000130: 89a8 92be a0ba 403e 074b 283e 1be3 b83e
00000140: f0e0 56be f59d 98be a5e3 803e 060c 35be
00000150: 7cc5 843e adf4 9bbd 307c 733e e8b6 acbe
00000160: a2e6 5ebe 6d40 da3d a920 bd3d 5e6f f1bd
00000170: 3770 7a3e aba1 923e 0daf a1be 86ff 61be
00000180: c2df c33e e8d7 04be cf68 34be 4d6f e1be
00000190: 5fec 76be db9a dd3d e313 78bd 6165 98be
000001a0: adb7 d43a add8 90be aace bfbe ed47 80be
000001b0: 9a7f c4be 1128 90be e007 df3e ab4b 993d
000001c0: c40e 023e 32e0 ccbe 9187 86be 6146 0fbe
000001d0: 6940 863d 31f5 c1be df0f 42be c578 8fbe
000001e0: c88e b7bb 4393 24be 71ff f4bc 1985 99be
000001f0: 4514 97be 88c9 82be 0312 16be 7a5f acbe
00000200: fd9e b83e e0e2 d7bd 1a8c be3e 132f f33d
00000210: 399d b8be ef43 893e d20f fcbd 3a35 17be
00000220: 8ef9 b8be c924 e6be d65c 0b3e 07a2 c8bd
00000230: 819d 293e bd89 b7be 935c a33e 3084 a1be
00000240: 2bef 91bd 44e9 be3d 7f7c 623e 9150 b33e
00000250: 9a26 c53e 00cc b3be 94c1 803d 8508 42be
00000260: 16f3 f9bc e050 9fbe c67f c93e bced 8ebe
00000270: 6982 543e 7738 2e3e f9b8 023e 071b 6ebe
00000280: 3aaf d33e 6705 743d ecff 643d b3bc b2be
00000290: 29de 363e 7033 4ebd a390 48be 2d4b c13e
000002a0: bb48 bf3d 6223 6cbe 8ae6 5dbe 9528 e8bc
000002b0: d896 743e 4e21 04be 6a1c 77be 1b80 18be
000002c0: a86e a3be 7c2f 1d3e fbc2 9b3e cb4f d6be
000002d0: 794f d33d 7870 683e 52e6 923d 25bf 36be
000002e0: 4f30 683e 9bb9 603e 836d 173e 438b 8dbd
000002f0: bf1f 14be c1e4 153d 7e3c 9fbd 278f 06be
00000300: c8a5 913e dbda ba3e b158 4cbd 91c6 a4bd
00000310: 7a8d fabb 921f ebbc 91c8 bf3d b39b db3d
00000320: 0777 cabe a653 1abe 8cb0 b73e 0fec 303e
00000330: b39e 6dba 556e 8abe f3aa 87be 622d c4be
00000340: c2f1 13be 5845 033e 68ed 843e 093a 5d3e
00000350: a8fb ccbe 6062 87be 0e34 9bbd 664d d73e
00000360: c110 4f3d 6df7 debd f347 1a3e 8f02 1abe
00000370: d412 87be 2cd1 a03e 8d79 53be a362 c1bd
00000380: 194b debe f9ee 963e 09ce a53e f924 143e
00000390: ed56 a4be 8b42 c8be 7f1e b5be 6a36 9d3e
000003a0: 8f8c 543e d906 c13e a338 643e 4e90 d03d
000003b0: 2405 47bc ef42 aabe eba9 b7be d9c6 d1be
000003c0: af88 323e 281e 48be 59d1 c7bd 1792 72be
000003d0: b970 b2bd c210 a0be 3dcc 87be e065 1b3e
000003e0: c09d f8bd 8851 863e 4251 11be d4b0 9cbe
000003f0: 6e01 88bd 96f8 4ebe 2d19 16be ab5f cfbe
0.33611584 0.36591795 -0.10861496 0.35322502 -0.0941654 0.06952265 -0.21147107 0.2733021
0.3708788 -0.32503504 0.36427146 0.08379404 0.31856844 0.06201046 0.20322762 -0.051158223
0.31973684 0.06344231 -0.20803304 0.09761918 -0.18684484 -0.05807089 -0.18470183 0.28548303
-0.33357403 -0.1970684 -0.12019102 -0.2845252 0.0763527 -0.40555948 0.39920798 -0.37028036
0.32320592 0.08214703 -0.121252514 0.2554684 0.05760709 0.3576786 0.064026624 -0.13272892
0.114202805 -0.10785667 0.1589199 0.39965788 0.28427857 -0.19957308 0.24633777 0.07906486
0.18639678 -0.24772827 -0.423258 -0.16481502 -0.3448198 0.32847401 0.14796136 0.17813197
0.12310229 -0.023783349 0.32062364 -0.29679573 0.018633274 -0.2850989 0.14309508 -0.15094028
0.12609984 -0.09444535 0.3725951 -0.2483456 -0.2553189 -0.25597385 0.37483096 0.14135025
0.36227334 -0.3667835 -0.3674122 -0.33105722 -0.28644207 0.18821192 0.1643487 0.36110768
-0.20984244 -0.29808012 0.2517368 -0.17680368 0.2593192 -0.076150276 0.23777843 -0.33733296
-0.21767667 0.106568195 0.09234745 -0.1178882 0.24456869 0.28638968 -0.31578866 -0.2207013
0.3825665 -0.12972987 -0.17618106 -0.44030228 -0.24113606 0.10820552 -0.06056584 -0.29764846
0.0016229056 -0.2829031 -0.3746236 -0.25054875 -0.38378602 -0.28155568 0.43560696 0.07485136
0.12700945 -0.40014797 -0.26275304 -0.13991691 0.06555254 -0.3788238 -0.18951367 -0.28021827
-0.0056017376 -0.16071801 -0.02990696 -0.29984358 -0.29507652 -0.2554438 -0.14655308 -0.33666593
0.36058798 -0.1054132 0.37216264 0.11874213 -0.3605745 0.26809642 -0.12307705 -0.14766398
-0.36127895 -0.4494994 0.13609633 -0.09796529 0.16563989 -0.35847273 0.31906566 -0.31546164
-0.07125696 0.09321836 0.22117804 0.35022405 0.38506013 -0.35116577 0.06286922 -0.18948562
-0.03051142 -0.3111639 0.39355296 -0.27915752 0.20752873 0.17013727 0.12765874 -0.23252498
0.41344625 0.059575465 0.05590813 -0.3490959 0.17858185 -0.050342023 -0.19586425 0.37752667
0.09340044 -0.23060372 -0.21669975 -0.028339664 0.23885667 -0.1290333 -0.24131933 -0.14892618
-0.31920362 0.15350145 0.30422196 -0.41857752 0.103178926 0.22699153 0.07172836 -0.17846353
0.22674678 0.21945803 0.14787869 -0.06911328 -0.14465235 0.03659511 -0.0777521 -0.13140546
0.28446794 0.36495098 -0.04988927 -0.08045686 -0.00764626 -0.028701577 0.09364427 0.10723057
-0.39543936 -0.15070972 0.35876882 0.17277549 -0.00090644805 -0.27037302 -0.2649761 -0.38315874
-0.14447692 0.12819421 0.25962377 0.2160417 -0.40035748 -0.26442242 -0.07578288 0.42051238
0.050553087 -0.108870365 0.15066509 -0.15040039 -0.26381552 0.31409585 -0.20651837 -0.094426416
-0.4341667 0.29479197 0.32383755 0.14467229 -0.3209757 -0.39113268 -0.3537483 0.30705577
0.20756744 0.37700537 0.2228723 0.10183774 -0.012147222 -0.3325419 -0.35871825 -0.4097202
0.17434953 -0.19542754 -0.09756727 -0.23688541 -0.087129064 -0.31262785 -0.2652301 0.15175581
-0.121394634 0.26234078 -0.14191154 -0.3060366 -0.06640898 -0.20212016 -0.14658041 -0.40502676

actor.latent_pi.0.bias f4 [128]
00000000: 1f85 803d 594e d8be fff1 be3e cc17 863e
00000010: b142 d9be 9c6c 37be d735 1a3e cd6b c1bd
00000020: eda4 83bd bf88 81be 5806 be3e 88b5 8fbe
00000030: 6d44 b63e 6ea5 423d 0afb 253d 39cb 9c3e
00000040: 1913 87bd 8754 91be 950f d5bd c74e 983e
00000050: 08df 9dbe 1b24 c53d 8e53 dabe c929 5c3e
00000060: f8b4 273e a392 be3c 1f4e 113e 56a5 64bc
00000070: c75f 683e 2946 bebe 41e5 42bd 97e7 1e3e
00000080: 538c d53e 9892 773e 9c24 a8be 6130 a13e
00000090: 6c10 d3bd 9fab bcbd 8c1e ddbe e6af f5bd
000000a0: 14af 943e c061 af3d 9a78 6dbe a0f9 cf3d
000000b0: a3bf 0abe 30ae bf3e 8427 c7be 4407 1cbe
000000c0: 3e1d ebbe 4836 62be d762 093e c1ce c03e
000000d0: 9a0c 733d 923c d63e 68c6 863d f6bf 7d3e
000000e0: 3836 a93e 344b b03e aad6 7abe f306 ce3e
000000f0: 4f8f 893e d4fc 3bbe 5a06 77be 39b4 adbe
00000100: 07a6 c33d 75e9 d6be d6e2 143e 8473 f13d
00000110: d587 ccbe 6f9c e53d 3d74 cdbc 96d5 503e
00000120: 7875 8e3e 856e e4be 9c49 c13e 3e7c ae3e
00000130: f26c 353e fcf4 c4be 6739 3ebe 1259 17be
00000140: 2319 a4bd ddb4 5b3e f6a8 d53d 41c3 b53e
00000150: 7733 48be 3721 0e3e 45a6 1d3e d657 cabe
00000160: 1f72 e3be 064c 63be 3bba 9a3e 118a d9be
00000170: 897c d2be f890 653e a1b4 5e3e 14a7 ab3e
00000180: 0a69 b4be 24b3 a2be e890 3b3e ea5e be3e
00000190: bcb6 913e ce6e 7a3d 9fa7 d33d 226a c43e
000001a0: 3692 8bbe 16e1 5ebe c5f8 963e a1c7 97be
000001b0: 079d 67be cf65 983e db69 f63d 9359 c73d
000001c0: 607e 6dbe c946 82bc 416c da3e a7e1 8bbe
000001d0: 2fc5 e6bc 6ae5 3c3e a764 95be cb5d d23e
000001e0: f863 60be dc5b ccbd 496b 04be 49d9 aabe
000001f0: 9101 e4be 2c8e 673e 600b e83d 0494 dcbe
0.06275391 -0.42247275 0.37294003 0.2619003 -0.42433694 -0.17912525 0.15059601 -0.094443895
-0.064279415 -0.2529964 0.37114215 -0.28068185 0.3559908 0.047521047 0.040522613 0.30623797
-0.065954395 -0.28384802 -0.10403363 0.29747602 -0.30834222 0.09626027 -0.42641872 0.21500315
0.16377628 0.023263281 0.14189957 -0.013955435 0.22692786 -0.37162903 -0.047581915 0.15518032
0.4170862 0.24177015 -0.3284043 0.31482223 -0.103058666 -0.092124216 -0.43187368 -0.119964406
0.29039824 0.08563566 -0.23190537 0.10155034 -0.13549666 0.37437582 -0.38897336 -0.15237147
-0.45920748 -0.22091019 0.1341661 0.3765774 0.05933819 0.41843086 0.06580812 0.24780259
0.33049178 0.34432375 -0.2449595 0.40239677 0.26867148 -0.18358165 -0.24123517 -0.3392656
0.095531516 -0.4197499 0.14539656 0.11789611 -0.39947382 0.11211478 -0.02507984 0.20393977
0.27823997 -0.4461557 0.37751472 0.34079164 0.1771734 -0.38468158 -0.18576585 -0.14780071
-0.08012607 0.21455713 0.10432617 0.3550053 -0.19550882 0.13879858 0.15395458 -0.39520139
-0.44423005 -0.2219697 0.30220208 -0.4248815 -0.41110638 0.22418582 0.21748592 0.33525908
-0.35236388 -0.31777298 0.18316996 0.3718179 0.28459728 0.061140828 0.103347056 0.38362223
-0.27259988 -0.21765551 0.2948667 -0.29644492 -0.22618495 0.29765174 0.12031909 0.09733882
-0.2319274 -0.015902894 0.42660716 -0.27320597 -0.028170196 0.1844689 -0.29178354 0.41087183
-0.21913135 -0.09978458 -0.12931551 -0.333689 -0.44532445 0.22612828 0.113302946 -0.43081677

actor.latent_pi.2.weight f4 [128, 128]
00000000: d053 83bd 9079 993d 8ece b83c 35d8 143d
00000010: dceb 66bd 6833 1fbd 03a2 fbbc 7790 d0bc
00000020: 2c37 aebd afc0 843b cac0 143c ad6d a6bc
00000030: 44ef d0bc af7d eebc 4900 9f3c b77e e63c
00000040: 3b0e 56bd bb1b a6bd 201f 183d 83bb b73c
00000050: 45a0 03bd 5772 a53d dfae 3abd 88c2 763d
00000060: ea5e 9a3c 184a 9dbd f95d 493d 2a9c a8bd
00000070: bd6d 98bd da7d b1bc 1a5b 41bd acbf ac3d
00000080: f7e8 7cbc bb24 ab3c 1ee4 abbd 9025 2a3d
00000090: 6571 d2bc 15de 79bd f059 1abb a20e 2c3d
000000a0: 41b6 8f3d c027 46bd 1721 04bd dbe1 1c3c
000000b0: a070 d53c 2c15 df3c abe1 343d f3bf 13bc
000000c0: 0345 093d 3adf 7e3d d864 0abd 109c 843d
000000d0: 0911 603c 8ce0 883d 3a79 8cbd e372 53bd
000000e0: 7968 31bd 7c7c 1bbc 64fb 6a3d 2e62 62bd
000000f0: d73e 1a3d 8c9c 3dbd 2647 3b3d 09cd 1ebc
00000100: 6717 a3bd c848 29bd dfbb 38bd 194f 293d
00000110: 1749 59bd 7f1e fbba 046a 483c c346 28bd
00000120: ac07 df3c a568 9cbd fae9 7dbd fd17 acbd
00000130: c605 2ebd 2c02 28bd 10f2 f8bb 97d8 8bbc
00000140: b373 1f3d 1ebd a93d af23 293c 0c12 76bd
00000150: 5c70 afbd 69f4 143d 8a53 5fbd bec1 173d
00000160: 8a74 653d 158a b93c 4b2d a43d c567 9c3d
00000170: 69f3 b43c 4df8 8bbd e9d9 8d3d e325 25bd
00000180: 3a99 3ebd 6bc9 933d a6a2 7c3d efb0 ab3c
00000190: c80c 093b 65c9 a7bd 9f33 12bd 7400 ae3d
000001a0: 9b26 973c e691 393c 1fd8 03bd fdf1 fdbc
000001b0: 4202 5f3d 3b1f ffba 0962 573d 34f9 7cbc
000001c0: 5be5 1e3d c261 ea3c baf0 493c 91ae f93c
000001d0: e86c 203d 12f8 593d a58a 893d ce18 b2bc
000001e0: 3bed 89bd 7f21 343c 7f8d 7bbc 0803 eebc
000001f0: f77b dbbb 9b18 483c d1c6 743d bfc7 bb3c
00000200: 81c4 0bbd 1f62 1abd 2500 bebc d4ed 0bbd
00000210: 3582 a23d 8ab2 373d caa9 9d3d 2829 8239
00000220: d0e2 8d3c 51fe 013d b08b afbd 8f81 0d3c
00000230: e599 29bc 7bfa 4abd 5256 91bd 7f08 9f3d
00000240: 1988 8e3d 28cb 273d 59bb aa3d 8ada 37bd
00000250: 7181 9cbc c320 e33c 055c a7bc bf87 adbc
00000260: 6b81 b6bd 5500 b33c 31ca 5abd bde7 daba
00000270: 21e2 a63d 3589 d9bc 9b82 09bd d8c7 5e3d
00000280: cd1a 05bd 2969 14bc 2d67 a73d 063b 1bbd
00000290: ca80 81bd d89c 4abd a835 d0bc 08d6 2cbd
000002a0: bde8 3fbd 0561 013d 9b18 763c 3e5d fbbc
000002b0: 2fdb 9abd 87b7 07bd 5932 10bd e888 05bd
000002c0: bf97 b4bd 772a 8f3c a576 91bd fa61 8fbd
000002d0: fa83 a1bd 4efc fa3c 591b 61bd 75df 1dbd
000002e0: 262f 823d ba83 393d 70c7 3f3d 11b7 b1bd
000002f0: 489e 8ebd 7b39 2cbd 268a 953d cdd2 0b3c
00000300: 1530 89bd 36f0 83bb e373 94bd eab9 aabc
00000310: 5a8b e6bc 95b3 9c3d 3e6a e53c 3084 7cbc
00000320: 4da1 333c 0d75 f0bc c03e 0e3d 9871 0e3d
00000330: bd0a b13c 177f 26bd b411 983d 5d90 6dbc
00000340: 4675 0fbd 3f27 4e3d 555a 913d bc81 ad3d
00000350: 18ec b93c 2823 0bbd bfc6 2a3d f360 853d
00000360: 946e acbd d713 4bbc c6a9 85bd 7b54 7e3c
00000370: d4bb 153d 2ff5 abbc 7844 18bc 2fb8 0a3d
00000380: c6e5 c6bc 9833 92bd dab2 8b3d 66e9 35bd
00000390: c39d 20bc 2687 ce3a c3b4 40bc 706a afbd
000003a0: 8514 193d 0451 1bbd e4a7 40bd 473f 783c
000003b0: eb7e 4abd fbb2 23bd d3b3 aabc 6b3b edbc
000003c0: 6f33 17bd b13d f5bc 1bb1 963c c183 96bd
000003d0: ccbd 63bd 1526 9abb 6464 493c c69e 3c3d
000003e0: d74f 7ebd de16 e13c 0143 3a3d 1c4e 393d
000003f0: 2f77 b0bd 42bb 37bd bdb4 9dbd 42c8 7cbd
-0.0641247 0.07493889 0.02255943 0.036339004 -0.056377277 -0.038867384 -0.030716902 -0.025459511
-0.08506617 0.00405129 0.009079168 -0.02031597 -0.025504716 -0.029112665 0.019409316 0.028136594
-0.052259665 -0.08110758 0.037139058 0.02242828 -0.032135267 0.08078449 -0.045576926 0.060244113
0.018844087 -0.07680148 0.049161885 -0.08232911 -0.07442806 -0.021666456 -0.04720602 0.08434996
-0.0154364025 0.020891538 -0.08393119 0.04153973 -0.025688836 -0.06100281 -0.0023552142 0.042006142
0.07017184 -0.048377752 -0.03225812 0.0095753325 0.02605468 0.027231775 0.044160526 -0.009017932
0.03351308 0.062224604 -0.03378758 0.06475079 0.0136759365 0.06683454 -0.0685906 -0.051623236
-0.043312524 -0.009490129 0.05736865 -0.055269413 0.037657585 -0.046291873 0.04572215 -0.009692439
-0.07963448 -0.041329175 -0.045101043 0.0413352 -0.05304822 -0.0019158869 0.012232307 -0.04108311
0.027225338 -0.07637147 -0.061990716 -0.08403013 -0.042485975 -0.041017696 -0.0075972155 -0.017071052
0.0389287 0.08288024 0.010323449 -0.060075805 -0.08566353 0.0363659 -0.05452303 0.03705
0.056019343 0.02264885 0.080164514 0.0763698 0.022088723 -0.06834469 0.06926329 -0.040319335
-0.046532847 0.07216152 0.06167855 0.020958392 0.002091216 -0.0819271 -0.03569376 0.0849618
0.018451026 0.011326289 -0.03218853 -0.030999178 0.054445513 -0.0019464263 0.052583728 -0.015440274
0.03879295 0.028611068 0.01232546 0.030478748 0.03916636 0.053215094 0.067158975 -0.021740343
-0.06734701 0.010994314 -0.0153535595 -0.02905418 -0.0066981274 0.012212898 0.05975992 0.022922395
-0.034122948 -0.03769123 -0.023193428 -0.034162357 0.07934991 0.044848002 0.076984 0.00024826196
0.017320067 0.031736676 -0.08571565 0.008636846 -0.010351633 -0.049555283 -0.070965424 0.077652924
0.06959552 0.04096523 0.08336515 -0.04488615 -0.019104691 0.027725583 -0.02042962 -0.021182893
-0.08911403 0.021850744 -0.05341548 -0.0016701143 0.081485994 -0.026554683 -0.03357182 0.054389805
-0.032496262 -0.009058275 0.08173976 -0.037898086 -0.06323393 -0.049465984 -0.02541621 -0.042196304
-0.046852816 0.031586666 0.015020515 -0.03068411 -0.07561337 -0.03313401 -0.035204265 -0.032601267
-0.08818006 0.017476304 -0.07102708 -0.070011094 -0.07886501 0.030637886 -0.05495772 -0.038543183
0.06356649 0.04529164 0.046821058 -0.08677495 -0.069637835 -0.042047005 0.0730174 0.008534146
-0.06698624 -0.004026438 -0.07248666 -0.020840604 -0.02814262 0.0765144 0.028004762 -0.015412375
0.01096375 -0.02935269 0.03472781 0.0347763 0.021611566 -0.040648546 0.074252516 -0.014499751
-0.03502395 0.050330397 0.070973076 0.084720105 0.022695586 -0.033969074 0.041693445 0.06512632
-0.084195286 -0.012394867 -0.06526522 0.015523071 0.03655608 -0.020990936 -0.009293668 0.033867057
-0.024279486 -0.07138747 0.068212226 -0.04441204 -0.009803238 0.001575683 -0.011761847 -0.08565223
0.037373085 -0.03791906 -0.047035113 0.015151805 -0.049437445 -0.03996561 -0.0208377 -0.028958997
-0.036914285 -0.029936643 0.018394997 -0.07349349 -0.055600926 -0.0047042468 0.012292001 0.046049856
-0.06208786 0.027476724 0.045474056 0.045240507 -0.086164825 -0.044856317 -0.07700489 -0.06171442

actor.latent_pi.2.bias f4 [128]
00000000: 7919 0cbc b78c 70bd 7398 61bd 774a bf3c
00000010: 87ca 86bd c791 afbc 4d11 dc3c c80e adbd
00000020: 4130 70bd 0b91 343c fd72 193d 1517 a4bd
00000030: d889 563d c25e 89bd 2dd2 353d 64bf 313c
00000040: 5ef4 0f3d fd9e cb3d 79e7 8fbc 13de 3abd
00000050: cad7 1c3d 561f d73c 2918 4dbd 74fe 36bd
00000060: bb0c 16bd b6d8 3c3d 8592 553d a910 42bd
00000070: f05f 873d 3b5b 95bd 655e 54bd 3d76 503c
00000080: b75d 5ebd 34f7 193d c970 39bd 2aad 743d
00000090: b250 f5ba 50ee 6dbc 5dce a23d 88aa edba
000000a0: c54b aa3c 0e00 983d a46f bbbd bdc3 a53d
000000b0: 8551 dabc b3ff 79bd 734e 073b 5dd7 2abd
000000c0: e569 3ebd b40f fabc 2afe 813d c343 943c
000000d0: 0539 5b3b 58a1 0b3d 3b5b 803c e6c1 93bd
000000e0: 2d0f 533c c572 173d f8fc 4e3c 396a 203c
000000f0: 0a83 8e3d cbe3 9ebc 66ca 983d c69d 853d
00000100: 0999 953d 9fb7 5e3b 81a9 f73c fb72 2fbb
00000110: 6561 eebd c75e 5dbc aa08 3abc 920a c2bc
00000120: aa9c 3ebd 7d21 35bd 6b91 8dbd 3015 92bd
00000130: ae49 853c 9211 b33d 2042 a0bd 218f a8bd
00000140: f13a 153c e1fb 4bbd 6651 bcbd 53a9 d83d
00000150: bf2f b43d 5ebf 5a3d a6a1 24bd 3000 22bd
00000160: 57cf bc3d a0ca 50bd 40fe dabd 85fd 91bd
00000170: c30b 873c c50a 313d 2ed5 60bd 60bc a33d
00000180: 5103 3dbd 2e47 19bc 203d 693d 4c0b a03d
00000190: 21e2 c43d 8ec1 f8bb 3b98 febb 950f 6bbc
000001a0: a585 353d 6e46 58bd 8045 6f3d b4b9 713c
000001b0: bb41 0abd 0004 d1bb 6cb4 033d ae6b aebd
000001c0: 82ec 853d 233b e73d cf0a 393d 7df9 3d39
000001d0: 9051 c4bd 27a2 73bd 1167 42bd d65a 79bd
000001e0: 6e78 283d e3d5 24bc be1e c33d d731 bcbd
000001f0: 5861 52bd 3ed0 e9bd cf1a c73c 25b4 ec3a
-0.008550995 -0.058727946 -0.055077028 0.023350937 -0.06581598 -0.021431817 0.026863718 -0.08450085
-0.05863977 0.011020909 0.037463177 -0.08012215 0.05237755 -0.06707527 0.044389892 0.010848854
0.035145156 0.09942434 -0.01756643 -0.045621943 0.03829173 0.02626006 -0.05007187 -0.04467626
-0.036633234 0.04610511 0.052141685 -0.04737917 0.066100955 -0.072927915 -0.051847834 0.012723503
-0.054288592 0.037589267 -0.045273576 0.059735455 -0.0018716066 -0.01452215 0.07949517 -0.0018132487
0.020788083 0.074218854 -0.09152153 0.08093975 -0.0266502 -0.06103487 0.0020646125 -0.041709293
-0.046487708 -0.030525066 0.06347306 0.018098718 0.0033450734 0.034089416 0.015668502 -0.072147176
0.012882036 0.036974687 0.012633555 0.00979095 0.069585875 -0.01939573 0.074604794 0.065242335
0.0730458 0.0033983958 0.030232193 -0.0026771415 -0.1163967 -0.013511366 -0.011354605 -0.023686681
-0.046536125 -0.04422139 -0.06912502 -0.071329474 0.016270485 0.08743586 -0.07825112 -0.08230425
0.009108291 -0.049800757 -0.09195213 0.10579171 0.08798169 0.05340516 -0.040193222 -0.03955096
0.092192344 -0.05097449 -0.106930256 -0.07128433 0.0164851 0.04322316 -0.054890804 0.07994914
-0.04614574 -0.0093553495 0.05694306 0.07814655 0.09613443 -0.007591433 -0.007769612 -0.014346977
0.044316906 -0.052801542 0.05841589 0.014753748 -0.03375409 -0.0063786507 0.032154486 -0.08516632
0.06539251 0.11290576 0.045176324 0.00018117386 -0.09585869 -0.059480812 -0.047461573 -0.060877644
0.041130476 -0.01006076 0.09527348 -0.09189194 -0.051362365 -0.11416672 0.024304776 0.0018059058

actor.mu.weight f4 [2, 128]
00000000: dc2b 093d 9b62 923d 0710 0e3d 8501 99bd
00000010: 02ab eeb9 3435 543d 49fd 083d ea57 e03c
00000020: 7c27 f8bc ae14 87bd 4e67 903d bb22 edbc
00000030: f24b 3c3c 1d89 88bc 81b1 04bd 1745 9b3c
00000040: e742 5e3d bfc6 48bd ef0a 013d ae40 d03c
00000050: 4d66 ba39 f6d0 073c 8f45 d13c 37fb 463d
00000060: 2bba 3abc 3e90 603d 1d92 1bba 7f06 b63c
00000070: 0f08 81bd d6f4 353d 3d4a 643d 7445 e63b
00000080: f95a 0bbc b3f2 9e3c a6c0 82bd 6242 81bd
00000090: d1cd 263d d3e2 83bd 0439 2bbc 4486 28bd
000000a0: 2bfb 9ebd 4538 2bbd 480f f93a 0de4 32bd
000000b0: be9c 82bd 1b38 4cbd 2404 b6bb eb33 99bc
000000c0: 3d59 333d a82c 51bd 6251 56bd 9d0d e7bc
000000d0: f562 a43d b590 913d 247a 5ebc e630 9bbc
000000e0: 97ab 633c 812f 64bb e35a 343b 36c8 00bd
000000f0: 7ee2 07ba c0d6 383c abd5 1d3d 01f2 44bd
00000100: c185 5dbc 12fa ef3c 6672 df3c 0742 223d
00000110: 3e1e 8cbc b4b7 993c e749 a3bc 504a ac3d
00000120: d91f 1b3d 66e1 8dbd c0f7 153d 710c 9d3d
00000130: 4042 863c da61 7dbd 672f f33c adfa c13b
00000140: ea0f b6bc 2f36 fe3c f680 583d 2910 e33c
00000150: db62 6dbd 23bc 053d c252 19bd 9705 72bd
00000160: 1999 02bd 0632 0a3d c593 423d 226c d43c
00000170: 3842 593d 0693 ffbc fce4 2bbd 60f9 24bd
00000180: 02c4 8cbd ec2f 02bd 230c 38bd 3106 75bd
00000190: 903f 423c ca65 c0bc 8674 2b3b 8dfa f3bb
000001a0: f757 8eba 6d34 81bd ed57 81bd 4a54 9abd
000001b0: 8523 263d a818 003b fa91 81bd 40ac aebc
000001c0: 0f9b 24bc 1929 4dbd 2c1c 923d 7924 4f3d
000001d0: 5441 adbb b9f9 fcbc f85e 183d 2523 573c
000001e0: a4c7 293c 01e6 5d3c 8194 71bd 6b6a ce3c
000001f0: fd45 0e3d b414 183d 8380 ff3c 2bae 803d
00000200: a0a1 0dbd f903 173b bda5 3cbd ada8 883d
00000210: baa5 323a c6aa 6bbd e981 303d e2ed 373c
00000220: 6551 c4bc b149 903d 3ed8 12bd 769f 33bd
00000230: c6c4 c6bc 32b0 f93b c104 4bbd 3989 bf3c
00000240: a1f3 5abd 343c 40bd 0d60 18bd eebc 7cbd
00000250: 844d 0b3c 5ca5 003d 71d7 55bc 4be8 b3bc
00000260: d884 303c 345e 7abd 7693 5ebd 9079 30bd
00000270: dbf6 94bd 8ab7 743c 930a 643d b2d0 4e3d
00000280: ee78 d6bc 0a16 283d c597 933d ef43 1abc
00000290: a487 95bc 6843 8dbd 8c80 533c 2504 dbbc
000002a0: 7c5b 743c 7251 8ebd 3a54 acbb 7308 bd3b
000002b0: 5502 65bc 4ee0 d3b9 1a04 963d 27c9 fa3c
000002c0: d4b3 24bd 5bbb 9abc 840d 113d 6d0e db3c
000002d0: e677 86bd b51a 3fbd 01a5 3dbc 68d7 f6bb
000002e0: 100e 643a a077 423c f312 cbbc 67b1 19bd
000002f0: 79c0 083d e678 6fbd 916e 78bc 59f2 85bd
00000300: 1764 57bd 3917 f43c dbd1 32bc deaf 7f3d
00000310: 5c8c 943d 4a6b 78bd 2ed8 19bd 736f 7c3c
00000320: 28bd 16bc 4928 a7bd 74fa 31bd 635e 30bd
00000330: 04a6 9a3b 7167 123d 88a5 183d d6a8 7d3d
00000340: 873c c1bc 92bb 703d a1fd 16bd 24f2 62bd
00000350: 70ea fbbc 96c6 a53c ea2c 303c 2a6f 88bd
00000360: 7e11 c33c 09b7 c23b 5d5b 4b3d bb73 06bd
00000370: 7c3b 82bd 12e5 44bc c34a f9bb fcf2 f8bb
00000380: 53e8 0b3c 6abc 833d a147 31bc 25ec 72bd
00000390: ef19 37bd d4a9 c03b 8a6b 293d 94b2 6f3c
000003a0: 58dd 84bd e8d9 4a3c fd7a 693d 8fb2 b5bc
000003b0: c195 1f3d b650 7f3d 656e 7b3d a1bb 4e3c
000003c0: c9ec 98bd 7cf2 7ebd e773 753d 3045 b0bc
000003d0: c331 4e3d 5564 463d 796f 85bd 7b43 173d
000003e0: 2c50 5dbd ad28 4dbd ee23 4d3d 8a46 823d
000003f0: 5d2b 183d 5359 073d 4b11 353c 9372 383d
0.033489093 0.07147714 0.034683254 -0.07470993 -0.00045522308 0.05180855 0.033444677 0.02738567
-0.030292265 -0.06595741 0.07050954 -0.028947225 0.011492716 -0.016666943 -0.032395843 0.018953843
0.05426302 -0.049017664 0.031504568 0.025421467 0.00035552905 0.008289566 0.025545863 0.04857942
-0.011396925 0.05482506 -0.00059345533 0.022219894 -0.06300365 0.044422947 0.05573486 0.0070273224
-0.008505576 0.019402837 -0.06384401 -0.0631149 0.040723626 -0.06439748 -0.010450605 -0.04114367
-0.0776275 -0.04180171 0.0019001747 -0.043674517 -0.063775524 -0.049858194 -0.005554693 -0.018701514
0.043786276 -0.05106798 -0.052323706 -0.028204734 0.08026687 0.07107679 -0.013578925 -0.018944215
0.013895891 -0.0034818354 0.0027519993 -0.031440936 -0.0005183591 0.011281669 0.038533848 -0.048082355
-0.013520659 0.029294048 0.02727623 0.03961375 -0.017104264 0.018764354 -0.0199327 0.084126115
0.03787217 -0.06927757 0.036613226 0.07668389 0.016389012 -0.061860897 0.02968569 0.0059197755
-0.022224385 0.031031696 0.05285736 0.027717667 -0.057955604 0.032650124 -0.03743244 -0.059087362
-0.031884287 0.033739112 0.047504205 0.025930468 0.053041667 -0.031198036 -0.041966423 -0.040276885
-0.06873323 -0.031783983 -0.04493345 -0.059820358 0.011855975 -0.023486037 0.0026161983 -0.0074456395
-0.0010859956 -0.063088275 -0.06315599 -0.07535608 0.040561218 0.0019545946 -0.06326671 -0.02132237
-0.0100467345 -0.050088022 0.071342796 0.050571892 -0.0052873287 -0.030880796 0.037199944 0.013130938
0.010362539 0.013543607 -0.058979515 0.025197228 0.034734715 0.03712912 0.031189209 0.0628322
-0.034577966 0.002304314 -0.046056498 0.06672797 0.00068148563 -0.05753591 0.043092642 0.011226149
-0.023964593 0.070453055 -0.035850756 -0.043853246 -0.02426375 0.007619881 -0.04956508 0.023380863
-0.053455 -0.046932414 -0.037200976 -0.061703615 0.008502368 0.0314077 -0.0130518535 -0.021961352
0.01077386 -0.061124995 -0.05433985 -0.04308468 -0.072736464 0.014936337 0.055674147 0.050491996
-0.02618071 0.041036643 0.07206682 -0.009415611 -0.018253155 -0.06897622 0.012909066 -0.026735375
0.01491439 -0.06949128 -0.005259064 0.0057688295 -0.013977607 -0.00040412176 0.07325001 0.030613495
-0.04021056 -0.018888166 0.03541328 0.026740277 -0.065658376 -0.04665633 -0.0115749845 -0.0075330026
0.0008699605 0.011869341 -0.02478931 -0.0375227 0.03338668 -0.058464907 -0.01516308 -0.06540365
-0.052585687 0.02979623 -0.010914291 0.06242358 0.07253334 -0.060649194 -0.03755968 0.015407431
-0.009200372 -0.08161981 -0.04345174 -0.043058764 0.0047194976 0.03574318 0.037267238 0.061928593
-0.023588432 0.05877263 -0.036862973 -0.055406705 -0.030751437 0.020236295 0.010752896 -0.06661828
0.023812052 0.0059422296 0.049647678 -0.032825213 -0.06359002 -0.012017505 -0.0076077892 -0.0075973254
0.008539277 0.064324215 -0.0108203 -0.059307236 -0.044702467 0.00587962 0.041362323 0.014629979
-0.064875305 0.012381054 0.057002056 -0.02217987 0.038961176 0.06233283 0.061384577 0.012617976
-0.07467038 -0.06224297 0.059924986 -0.021517366 0.050340425 0.048435528 -0.06515402 0.03692959
-0.054031536 -0.05008762 0.050083093 0.063611105 0.03715073 0.03304417 0.011051486 0.04503114

actor.mu.bias f4 [2]
00000000: 8310 e0bd a032 403b
-0.10940649 0.002932705

actor.log_std.weight f4 [2, 128]
00000000: e4d6 bbbb 0e85 d9bc 3831 10bd 32fd 803c
00000010: 5700 68bc 4649 ee3b 1747 acbb 77c3 93bc
00000020: 94dc 65bc 3e6b 9abd cd3b 4b3c c27a 51bc
00000030: bd13 2bbd 86f3 203d 2f35 bebc 0664 d2bb
00000040: aedd 44bd 958f 3abc 5887 923c d260 4c3c
00000050: 594c 393d 5996 4f3d 1c17 d73c b223 143d
00000060: 3a85 163c f2cd 053d 2a60 0cbd fa59 5c3d
00000070: a3e1 aa3c ec8c 923c ca7f 83bd 7d06 1b3d
00000080: 19e5 a53b bdbd 82bd dd11 763d b398 873c
00000090: b6c2 89bc 21e8 9bbc ebf6 3d3c 3bb7 80bd
000000a0: 855b 8cbd 51c9 48bc 582c d1bc 26e2 203d
000000b0: f5ac 213d 6c7d b1bc eb89 a4bd 9072 c43c
000000c0: 8330 40bc a3b0 5fbc f2df 823d 7833 083d
000000d0: 418d 52bd b94a a23d d873 63bd 402f 3dbd
000000e0: d916 013d d6b7 573c c532 e8bb 0a4a 17bb
000000f0: 3024 9ebd 3eea 1f3d 1bb2 b9bc ee31 40bd
00000100: 0727 82bd 43cc 003d a651 7abd 616b c338
00000110: fc4e 5b3d f5a7 eebc 02b1 023d a3e8 a13c
00000120: 4ec2 e4bc 132c 54bd fb81 58bd 6518 a5bd
00000130: b041 973c f800 013c 1316 9fbd 7f8b 893c
00000140: b76f 0a3c 65a1 e53c 88b5 563d 1b3a 323d
00000150: 45aa 373d 70e8 05bd d33b c53c fe07 ecbc
00000160: cc28 183c 2a6b d53c 73ad 7e3c 67dd bbbc
00000170: a507 763c b3ab 68bd b82c 91bd 0046 5cbc
00000180: 2e2e fbbb 7055 7dbc 5074 f03c b787 a13b
00000190: b646 88bc f5e0 d53c b8be 7cbc 6846 ef3c
000001a0: 3815 3dbd 234d 1dbd 4399 313c f4e6 623d
000001b0: a01a 17bc 71fa b03d 6ea0 343d 4335 a3bd
000001c0: 98ad 13bd 8138 cc3b 15e9 d8ba 0575 863c
000001d0: 638e 893c 3eb5 003d 0476 40bd 814f 273b
000001e0: f532 24bd 740f 93bc 2eaf e93c ecd3 dd3c
000001f0: 2e96 82bd 5772 10bb 2a2f 14bd 3b8f 50bd
00000200: 2c42 8b3d 2202 f63c f96d b9bb 573f f53c
00000210: 5368 273d 8092 7dbd 8421 0c3d 19e2 5d3d
00000220: 0a5a f73b e134 87bc 3e60 f03b fb12 c63b
00000230: 70bd 393c 928f 3ebd b975 e93c 949a 1c3b
00000240: 3fab c93a 42cc b4bc e9dd 6a3c ed79 3dbd
00000250: b622 b5bc 373a 6cbd 68f2 5b3d b642 e7bc
00000260: c4e4 3739 519d e4bb bb84 823d 21d1 6abd
00000270: efe8 16bd 9e3d 9ebd 44c4 26bc 3123 4cbd
00000280: d508 7fbc 454f ee3c 0315 34bb fdf7 0d3c
00000290: abcc a3bc ce9f 46bd a39d c73c 3d27 4a3d
000002a0: 637d 113d 3af0 813c dffa 93bc c678 213d
000002b0: 24e0 593d 8118 ff3b 0ede 483d f059 a6bb
000002c0: 8251 bebb b050 063c f53e 92bd 6098 203d
000002d0: 9049 4ebd 1126 0cbd db93 34bd d891 50bd
000002e0: c81b 48bd e8e0 523d f25e 5ebc fac2 db3c
000002f0: e248 633c 44cb 533d 1516 0cbd 6cea 31bd
00000300: 288a 883d 2d28 55bd fd2a 75bd 1354 8cbc
00000310: 4cb9 213d 4739 eb3c e175 5bbd fd63 6abd
00000320: e073 883c b411 76bd d3b9 483d 3701 a4bc
00000330: bcd7 53bd 4ccc 5fbc c936 803d 6fb8 2ebd
00000340: 206a 64bd b8be 183d 4f98 ef3c acef 97bc
00000350: a28e 403d da2b 9ebc 8562 2fbd bd20 8abd
00000360: 2d25 35bd 5a12 31bd 67c4 9e3b 21e0 f8bc
00000370: 403a 6c3d 0cca 0fbc a21e 0d3d 7929 283d
00000380: 4ff0 91bc 55fa 34bd a69f fe3c 1a98 73bd
00000390: 32c2 3b3d b54a 463d 9d25 13bc 0ba3 1dbd
000003a0: 8216 973c 7142 093d f3f6 d23b cc71 873c
000003b0: db2b e93c 34ea 8d3c af2a 873c 1280 38bd
000003c0: 6a21 d43b c991 0bbd 432d 363d a9f9 27bd
000003d0: d936 ca3d d196 123d db2b 89bd bfda f2bc
000003e0: 3b59 0cbc 3160 d4bc 2751 c6bb 17ee 26bd
000003f0: 147e 7e3d 653e 4a3d 9e67 e0bc bbe0 23bd
-0.005732404 -0.026552703 -0.03520319 0.015745733 -0.014160237 0.0072719185 -0.005257498 -0.01803754
-0.014029641 -0.07539986 0.012404394 -0.012785615 -0.04176687 0.039294742 -0.02321872 -0.006420615
-0.048062973 -0.011386772 0.017886803 0.012474256 0.045238826 0.050680492 0.026256137 0.036166854
0.009187037 0.032667108 -0.034271397 0.053796746 0.020859545 0.017889462 -0.06420858 0.037847985
0.005062711 -0.06383846 0.06007563 0.016552305 -0.016816478 -0.019031586 0.011594514 -0.062849484
-0.068533935 -0.012255029 -0.02553384 0.039278172 0.039471585 -0.021666251 -0.08034118 0.023980409
-0.011730316 -0.013652953 0.063903704 0.03325221 -0.05140424 0.079244085 -0.0555304 -0.04618764
0.03151593 0.0131663885 -0.0070861303 -0.0023084902 -0.07721746 0.03904175 -0.022667935 -0.046922617
-0.063551 0.0314448 -0.061113022 9.3183255e-05 0.053542122 -0.029132823 0.03190709 0.01976425
-0.027924683 -0.051799845 -0.052858334 -0.080612935 0.01846394 0.007873766 -0.07767882 0.01679015
0.008449486 0.02803106 0.052419215 0.043512445 0.044840116 -0.032692373 0.024076378 -0.028812405
0.0092870705 0.026052076 0.015544283 -0.022932721 0.015016471 -0.05680437 -0.070886075 -0.013444424
-0.007665417 -0.015462264 0.029352337 0.0049295085 -0.01663528 0.026108244 -0.01542633 0.029208377
-0.046162814 -0.03840364 0.010839763 0.055396035 -0.0092226565 0.08641518 0.04409831 -0.07969143
-0.036054224 0.0062323217 -0.0016548956 0.016413221 0.016791528 0.031422846 -0.04698755 0.0025529566
-0.04008766 -0.017951705 0.028525915 0.027078591 -0.06376301 -0.0022040808 -0.03617779 -0.050917845
0.06799731 0.030030314 -0.0056588617 0.02993743 0.040870976 -0.06190729 0.03421165 0.0541707
0.0075485753 -0.016504707 0.0073356917 0.006044743 0.011336669 -0.046523638 0.028498517 0.0023895847
0.0015386118 -0.022070054 0.014335134 -0.046258856 -0.022111278 -0.057672706 0.053697973 -0.028230052
0.00017537462 -0.0069767614 0.063729726 -0.057328347 -0.036843237 -0.07726596 -0.010178629 -0.04983825
-0.015566071 0.029090533 -0.0027478344 0.008665082 -0.019995054 -0.048492245 0.02436716 0.049353827
0.03551997 0.01586162 -0.01806396 0.03942182 0.053192273 0.0077849035 0.049039893 -0.0050766394
-0.0058080563 0.008197948 -0.07140914 0.039207816 -0.050363123 -0.03421599 -0.04408632 -0.050920337
-0.04885462 0.05148402 -0.013572441 0.02682637 0.013872357 0.05170752 -0.034200747 -0.043436453
0.06666976 -0.052040268 -0.05985545 -0.017129933 0.039483353 0.028713835 -0.053579215 -0.057224263
0.016656816 -0.060075477 0.04900534 -0.02002011 -0.051719412 -0.013659548 0.062604494 -0.04265636
-0.05576527 0.03729126 0.029247431 -0.018546902 0.047011025 -0.01930802 -0.042818565 -0.067445256
-0.044224907 -0.043230392 0.0048451903 -0.03038031 0.05767274 -0.008776199 0.03445304 0.041055176
-0.017814783 -0.044184048 0.031081986 -0.059471227 0.045839496 0.04841109 -0.008981136 -0.038485568
0.01844335 0.03351063 0.00643813 0.016533755 0.028463295 0.01732359 0.016499845 -0.045044012
0.00647371 -0.03407458 0.04447676 -0.04100958 0.098737426 0.03578836 -0.06697818 -0.029645322
-0.008566196 -0.025924774 -0.0060521546 -0.040754404 0.062131956 0.04937591 -0.027393159 -0.04000924

actor.log_std.bias f4 [2]
00000000: b3de 97bd d5a8 82bd
-0.074155234 -0.063798584
